checkpoints/driver.pth (torch, 903951 bytes, 32 tensors)

fc1.weight f4 [512, 87]
000000 73 48 94 3d 17 2c a0 bc bf be c2 3d 3d de 18 3d
       0.07240381 -0.019552274 0.09509038 0.037321318
000010 f3 b8 57 3d d1 2f bb bc 07 5d 9a 3d ed 13 47 bd
       0.052666616 -0.02284995 0.07537275 -0.048602987
000020 4e 1f 4a bb 2c cb 6b 3d 63 0a 86 bd ec ac 3e 3c
       -0.0030841413 0.057566807 -0.0654495 0.0116379075
000030 78 d6 ab 3b 35 07 be 3d 51 fd 42 3d 25 a6 d8 3c
       0.0052440725 0.092787184 0.047604863 0.026446411
000040 b2 2c dd bc e1 81 80 3c b3 38 a7 bc 12 1b 90 bd
       -0.026998851 0.015686931 -0.020412778 -0.07036413
000050 28 69 ab 3c a6 bf 70 bd 67 b3 3f 3b 92 3b b9 bb
       0.020924166 -0.05877652 0.002925122 -0.0056528533
000060 38 70 e6 bc 18 1f db bd c4 d0 03 3d 94 f2 b6 bd
       -0.028129682 -0.1069929 0.032181516 -0.08932987
000070 51 a6 ab bc a6 c7 27 3b 7b d8 85 bc ba 15 26 3d
       -0.02095333 0.0025601177 -0.016338577 0.040548064
000080 eb 2b 2f 3c db 8c 9b bd 07 d5 30 bd 03 a1 b9 bc
       0.010691623 -0.075952254 -0.04317191 -0.022659784
000090 f3 c0 49 bd ca 6d 07 bd 15 ea c7 3d ce 8a 88 3d
       -0.049256276 -0.033063687 0.097614445 0.066671
0000a0 7c c1 11 3d e3 23 a2 3c a2 15 71 bc 2e 3a db bd
       0.03558491 0.019792503 -0.01471463 -0.10704456
0000b0 63 f7 02 3d 90 1f 8e bc 32 29 8a 3c a2 9c 34 bd
       0.031974208 -0.017349035 0.016865347 -0.04409469
0000c0 33 11 e8 3c 06 88 38 3d e4 cc fd 3c 5a 85 1a 3d
       0.028328514 0.045051597 0.030981489 0.03772483
0000d0 dc 4b 27 bc 37 95 02 bd 40 1e 15 3d 52 11 a3 3d
       -0.010210957 -0.031880584 0.0364058 0.07962288
0000e0 35 e8 65 3d e1 43 be 3d cf 9b 82 3b 2a 24 43 3c
       0.056129653 0.092902906 0.003985859 0.011910478
0000f0 4d f4 0e bd 8f 73 6b 3d 59 32 55 3d b7 be 7c bd
       -0.034900952 0.057483252 0.05204997 -0.061705317
000100 9d 0b 39 bc ed 01 24 3e fa 9d 4a 3c 4f 2f d7 3d
       -0.011294273 0.1601636 0.012366766 0.1050707
000110 8b 1e 09 3d b9 d8 5b 3d 24 36 12 3e 8f de 0c be
       0.033476394 0.05367348 0.14278466 -0.13756774
000120 2c 8e 8c bd d0 9d dc bb 93 8d 22 bd 63 34 8f 3a
       -0.06863055 -0.00673268 -0.039685797 0.0010925647
000130 4a a1 0d bd 04 77 39 3e 4e 9b f1 bd 22 da f0 bd
       -0.034577645 0.18111807 -0.117972 -0.117603555
000140 a3 70 b5 bc 54 fd d1 bd 8f 96 d4 bd 48 c3 41 bd
       -0.022148436 -0.10253397 -0.10380279 -0.047305375
000150 6b 5d 31 be 41 04 52 3d ba 47 c1 3d b7 9a 7c 3c
       -0.17320792 0.051273588 0.09437509 0.015417746
000160 99 ca 9b 3b 73 e1 ef 3c c1 d5 97 3d d4 c1 05 3d
       0.004754376 0.029282307 0.07413817 0.032655552
000170 01 50 af 3d 6a ca 99 bc 0c 6e 6b 3d 97 16 63 3c
       0.085601814 -0.018773276 0.057477996 0.013860366
000180 21 b6 a7 bd 56 90 63 3b 68 64 4d 3d b9 7f f5 3c
       -0.08189035 0.0034723482 0.050144583 0.02996813
000190 b3 58 71 bc 5d 2e ca 3c 5c 9b c1 bd 3b dc cf bc
       -0.01473062 0.02468031 -0.094534606 -0.025373569
0001a0 dd 5e 54 3a 7a b6 3d bd 54 dd e1 3c 09 dc 05 3c
       0.0008101294 -0.0463166 0.027571358 0.008170136
0001b0 86 12 a1 3d 03 be c9 bd 9f da 8b 3d 12 3e 39 3d
       0.07864861 -0.09850695 0.06828808 0.04522521
0001c0 f1 ea f4 bb e0 89 0c 3d f3 26 fc bc ed 54 4c 3d
       -0.0074742963 0.034311175 -0.030780291 0.04988568
0001d0 de 42 56 bd e2 3c 9c 3d 96 be b3 3d 4a e0 a9 3d
       -0.052309863 0.076288 0.08776586 0.08294733
0001e0 6f bc 56 bd 9f 99 58 3d 29 81 44 3b 4a 0a ac bd
       -0.052425798 0.05288088 0.0029984212 -0.084004
0001f0 c8 7b 1e 3b da 70 00 3d f1 15 44 3b 61 07 1e 3d
       0.0024182666 0.031357624 0.0029920305 0.038581256
000200 c0 06 98 3d 9a 4e a9 3d cc d7 86 3d 41 c7 48 bd
       0.074231625 0.08266945 0.06584129 -0.04901815
000210 0b 10 2b 3c 8f 70 b1 3c 75 97 24 bd 08 f9 b6 3d
       0.010440837 0.021660117 -0.040183503 0.08934218
000220 4c 49 0b 3d ae ed 6c bc 94 9c 9d ba d5 20 b6 3d
       0.03400545 -0.014460964 -0.0012024813 0.08892981
000230 46 06 4b 3d 9a 83 0b bd 0a 8a 40 bd 1f a4 b1 3d
       0.04956653 -0.034061052 -0.047006644 0.08673882
000240 84 c6 aa bd cc 1a 38 bd 8a 50 d6 bd f8 2d 9c bb
       -0.08338645 -0.04494743 -0.1046458 -0.004766222
000250 3c 41 82 3d 19 2e eb bd 7c 69 b4 bc 0b 09 e4 bd
       0.06360099 -0.11483402 -0.022022955 -0.11134537
000260 d7 df 83 bc ca 4f c9 bd ad a7 01 3e 2f 2d c0 bd
       -0.016097946 -0.09829672 0.1266162 -0.09383618
000270 39 4b bc 3b 6a fb 00 be 95 db 35 bd 2b ce ef bc
       0.005746272 -0.12595907 -0.044398863 -0.029273113
000280 a8 a9 ee 3d 3e 23 44 3d a0 24 11 bc 28 e9 ed bc
       0.11653453 0.047885172 -0.00885883 -0.029041842
000290 db da eb 3d e2 34 34 3d ff bf b6 bd a2 fc d5 bb
       0.11516353 0.043995745 -0.08923339 -0.0065303603
0002a0 e6 7d b4 bd a4 ad 42 3e 5e b6 a7 bd b4 18 e0 3d
       -0.08813076 0.19011551 -0.08189081 0.10942212
0002b0 cf a5 54 be ac 23 0c 3e 95 cf 92 bd f7 ce 1d 3c
       -0.20766376 0.13685483 -0.071684994 0.009631864
0002c0 ac 1a eb bd 1d c5 67 bd 91 10 10 bd 6c 77 8a bc
       -0.11479697 -0.056584466 -0.03517205 -0.016902648
0002d0 f7 7e ac 3c d4 4e 2c 3d 90 72 7b 3d d1 f6 bd 3d
       0.021056635 0.042067364 0.061388552 0.09275592
0002e0 cc 70 85 bc 6e 43 8c 3c 71 4c d2 bd cd 1e ad bb
       -0.016289137 0.017121997 -0.10268486 -0.0052832128
0002f0 e4 f1 bf bc 4f 06 e3 3c b4 81 37 bd fb 3e 09 3b
       -0.023430772 0.02771297 -0.04480143 0.002094208
000300 7e c4 09 be 12 e6 99 bc 4e 30 c8 3c dc 61 66 bd
       -0.13453862 -0.018786464 0.024437096 -0.05624567
000310 58 b5 2b 3c e6 4b 73 3b c2 18 a5 bd 08 69 62 3c
       0.010480247 0.0037124096 -0.08061363 0.013818987
000320 da fd cd 3b f2 a8 53 3d f6 e5 13 3d 10 64 74 3d
       0.006286365 0.05167479 0.03610798 0.05966574
000330 46 72 bd 3d 41 5f 37 bc a6 a1 56 3d 87 3e c9 bc
       0.092503116 -0.011192144 0.052400254 -0.024565948
000340 3b a6 a5 bc 44 af 14 bd ce a8 46 bd 30 de 21 3d
       -0.020220866 -0.03629996 -0.04850083 0.039518535
000350 11 b1 84 bc 25 69 62 bd f4 c5 0f 3c 3b 9d 4b bc
       -0.016197713 -0.055276055 0.008775223 -0.012427623
000360 f9 f9 31 3c 9b b0 b2 3d 17 36 ca bc 31 8f a2 3d
       0.010862821 0.08725091 -0.024683995 0.07937468
000370 f2 8e 8f bd 49 4a 03 3d 6e ec 86 3d 99 78 c3 3b
       -0.070096865 0.032053266 0.06588064 0.005965304
000380 c1 ff 0e 3d d7 37 48 3d 35 bf d8 3d 43 f2 94 3d
       0.034911875 0.048881378 0.10583345 0.0727277
000390 77 ec 60 3d a2 a7 93 3d 36 61 5c 3d 6b fb bb 3d
       0.05491301 0.07209708 0.053803645 0.091788135
0003a0 80 f5 7f 3d 9f 54 a1 bc 87 78 c6 3c 06 ca 5c bd
       0.062489986 -0.01969367 0.024227394 -0.053903602
0003b0 1b 83 c5 3c 0a 5a 51 bc b2 cf be bd e3 42 bb 3b
       0.024110368 -0.012777815 -0.093169585 0.0057147606
0003c0 6f 13 82 bd 75 46 b2 3d 12 ae 8b 3d 68 22 8c bd
       -0.06351363 0.08704845 0.06820311 -0.068425
0003d0 3d db cd bd 81 7a 14 3d c3 52 04 3c c7 3b e8 3c
       -0.10051582 0.03624964 0.008076373 0.028348817
0003e0 60 c9 12 3d a4 54 64 3e 2f 2d c5 bd 65 5b 22 3e
       0.035836577 0.22297913 -0.09627759 0.15855177
0003f0 8d 24 21 bd d3 d0 29 be 65 73 03 3d 0b 03 1d be
       -0.0393415 -0.16583566 0.03209247 -0.15333192

fc1.bias f4 [512]
000000 00 48 9d 3d 76 41 39 3d 9b f8 aa 3a fe 05 7d bb
       0.076797485 0.045228444 0.0013044061 -0.0038608308
000010 ef 8c 9e bd 1f 7c aa 3d d8 be d8 3d eb 83 a1 3a
       -0.07741725 0.083244555 0.105832756 0.001232264
000020 a4 e0 96 3d 8d 11 c4 3d a9 b7 ee ba 5a 03 b0 bc
       0.073670655 0.0957366 -0.0018212694 -0.021485973
000030 bb f1 88 bd 2c 94 b2 3b fb ed 82 3d 3c 8c d0 bd
       -0.066867314 0.0054497924 0.063930474 -0.101829976
000040 ee 24 0d bd 43 fc 1d bd 66 9b eb 3a 02 ff fc bb
       -0.034459047 -0.038570654 0.001797539 -0.007720829
000050 75 9f ca bd 04 7c 26 3d bc 6d 93 bc 9f 9f a3 bd
       -0.09893695 0.040645614 -0.017996661 -0.0798943
000060 4d d6 9f bd 9d e3 80 3d 5e 02 9f 3d a1 2b e6 bc
       -0.078045465 0.06293414 0.077641234 -0.028096976
000070 65 c4 ad bd 40 05 84 3c 40 c0 3d bd 96 3d 6e bd
       -0.08484725 0.016115785 -0.046325922 -0.0581642
000080 00 68 03 bd 85 f5 32 3d 18 81 f2 bc c2 a7 c1 bd
       -0.032081604 0.043691177 -0.029602572 -0.094558254
000090 6b 6c b3 bd 77 fe cb 3c bd 4b 35 bd 43 d7 a6 bd
       -0.087609135 0.024901612 -0.044261683 -0.08146527
0000a0 a5 ab cc 3d a7 b5 f8 3c 1d 80 94 3d 47 ee d0 bd
       0.09993676 0.030360056 0.07250998 -0.10201698
0000b0 16 22 4c bd d4 9f da 3c b5 b0 8f 3d d8 c7 60 3d
       -0.049837194 0.02668754 0.07016126 0.054878086
0000c0 f4 e6 ed bb fb 46 89 bc 00 9d 96 3d 8c 7e 47 bc
       -0.007260198 -0.016757479 0.07354164 -0.012176167
0000d0 14 75 a3 3c c1 27 89 bd cf 87 ed bc a7 a4 a1 bd
       0.019953288 -0.066970356 -0.028995423 -0.07892733
0000e0 c8 6e c1 bd e0 5d 88 3c c3 4a 8c 3d c6 34 c6 3d
       -0.09444958 0.016646326 0.06850197 0.096780345
0000f0 b4 7f d6 3d 23 a6 c2 3c 23 bd c0 bd 48 c9 e0 bc
       0.10473576 0.02376086 -0.09411075 -0.027439728
000100 1b a1 87 ba b7 15 ce 3d e4 9a 97 bd c8 00 a0 bc
       -0.0010347696 0.100627355 -0.0740259 -0.019531623
000110 eb 94 c8 bc d4 54 d7 3c de e4 02 bd de 7e e3 bc
       -0.024485072 0.026285566 -0.031956546 -0.027770456
000120 c5 15 ef bb c8 84 fb 3c eb 86 c7 3c d7 36 81 bc
       -0.0072962963 0.030702963 0.024356326 -0.01577322
000130 80 19 23 bd f9 e7 bd bc 2d a1 8c bd 3d 42 34 bb
       -0.03981924 -0.023181902 -0.06866679 -0.0027505301
000140 b6 3b 80 bd be dc 7e bd 51 8b d5 3c 04 f8 b9 bd
       -0.06261389 -0.062222235 0.026067408 -0.09080508
000150 40 cd a8 bd 7f e4 3e 3d be 59 1a bd 50 0d 8b bd
       -0.08242273 0.04660463 -0.03768324 -0.067896485
000160 b5 18 8b 3d 4b 88 a6 3d a5 71 b2 3c 1a 19 ca 3d
       0.06791822 0.081314646 0.021782706 0.09868069
000170 4e cd c9 bd 64 22 9d 3d d2 43 98 bc c7 0a d4 bc
       -0.09853612 0.07672575 -0.018587027 -0.025884045
000180 17 29 c3 3d 7a 00 59 bd 52 e0 f7 bb f3 50 68 bd
       0.09529322 -0.05297897 -0.007564583 -0.056717824
000190 a8 58 7d bd 3e 58 88 3d 39 0f 4d 3d 24 11 1c bd
       -0.061852127 0.06657456 0.050063346 -0.038102284
0001a0 e6 ca 7b bc 1d 90 13 3d 4e 61 d2 3d de e3 e5 3b
       -0.015368199 0.03602611 0.10272466 0.0070156893
0001b0 b9 68 c6 3d 52 5e cc bd 45 7e a7 bd 36 d7 f3 3c
       0.09687943 -0.09978928 -0.08178381 0.029765707
0001c0 8c d0 c1 bd be 39 7e 3d cd c5 9d 3c 2a f2 b4 bd
       -0.09463605 0.062066786 0.019259358 -0.08835252
0001d0 60 ab d7 3c ff 90 13 bc 09 86 82 bd c1 fb f4 bc
       0.026326835 -0.009006738 -0.063732214 -0.029905202
0001e0 ad 54 3e 39 0f b3 30 3d 3a 6c 2a 3d 3e bb c6 bc
       0.00018151356 0.043139514 0.04160712 -0.024259206
0001f0 7d 98 3e bd 1d 63 96 bc bc ef 3e bd e2 89 86 3d
       -0.046532143 -0.018357808 -0.046615347 0.06569268
000200 35 46 7d bd bd 0d 5e bd 81 e9 b5 3c b3 53 88 3c
       -0.061834533 -0.05421232 0.02220607 0.016641473
000210 f9 88 bb 3d f6 f5 be 3b d7 3d ae 3d b2 64 7c 3d
       0.09156985 0.0058276607 0.08507889 0.061619468
000220 35 6e 9e 3c 26 2d 32 3d 5d 5c 8c bd ea af 1f 3c
       0.01933966 0.04350009 -0.068535544 0.009746531
000230 15 2b 08 bc a5 dd d4 3d 52 f4 a5 3d fc 8e 52 bd
       -0.008311053 0.10393838 0.08103241 -0.05140589
000240 f3 28 83 bd 56 23 e2 39 94 97 09 bd c0 b6 c3 3c
       -0.06404295 0.00043132406 -0.03359182 0.023890853
000250 48 a8 d2 bd 39 61 51 bd c5 25 84 3d fd e4 8a 3d
       -0.10286003 -0.05111811 0.064525165 0.06781957
000260 e6 37 1f 3b 4d 02 90 bc 01 72 7a bb da 05 b6 3d
       0.0024294793 -0.017579222 -0.0038214924 0.08887835
000270 33 98 11 bd fa f0 07 3d c2 cb ca 3d cb 2c ff bc
       -0.03554554 0.033188798 0.09902145 -0.031149289
000280 64 91 92 3c 51 51 3a 3c d2 70 a5 bb 9a c5 b2 3d
       0.017891593 0.011371926 -0.0050488496 0.08729096
000290 06 cd ca bd 28 be d0 bd 86 45 b9 3d 44 0b 5e bd
       -0.09902386 -0.101925194 0.09046464 -0.054209962
0002a0 65 d0 5c 3b e0 cd ac bc a5 3a e8 3c 28 7b 07 3d
       0.0033693549 -0.021094263 0.028348276 0.033076435
0002b0 c2 a8 ae 3d 32 a0 5d bc 96 c8 a4 bc 49 42 91 3d
       0.08528282 -0.013526963 -0.020115178 0.07092721
0002c0 fa 9c b3 3b b7 da 72 bd 7b 31 ae bb 28 37 3a 3d
       0.0054813595 -0.059290614 -0.005315957 0.045462757
0002d0 c4 bd 8b bd fd 4a cf bd 48 f6 51 3d 62 98 40 3d
       -0.06823304 -0.10121725 0.051260263 0.047020324
0002e0 d8 2d 9e 3d 47 0d 32 3c a8 1b df bc 89 a4 1c bc
       0.07723588 0.010867423 -0.027234867 -0.009560713
0002f0 8d 8e 81 ba e7 ce 8d bd 03 20 80 3d 37 95 97 3d
       -0.0009884402 -0.06924229 0.06256106 0.07401507
000300 17 4a 94 3d 85 ad 92 bd c6 d2 57 3c f3 fd 50 3d
       0.07240694 -0.071620025 0.013172811 0.051023435
000310 80 47 a9 3d 1a 1c 0c 39 70 ec 74 bc d3 8d b8 3c
       0.08265591 0.00013361909 -0.014948949 0.022528565
000320 24 b3 a6 bd da c9 c1 bd fc 3e ee 3c 8a ea 78 3c
       -0.08139637 -0.09462328 0.029082768 0.015192637
000330 43 7b c7 3c 60 f2 b2 bd 0a 4c 94 bd de 9d 9a bd
       0.024350768 -0.087376356 -0.07241066 -0.07549642
000340 26 cc a0 3b 73 5f c5 3d 11 78 fb 3c 88 fc af 3d
       0.004907149 0.09637346 0.0306969 0.085930884
000350 4b ae 16 3d 59 00 a6 3d fa 70 65 ba ec 06 7d bd
       0.036787312 0.08105535 -0.00087524916 -0.06177418
000360 23 a0 50 3b 37 6b 71 bd fd 66 fc 3a d3 2e 68 bd
       0.003183373 -0.05894014 0.0019256767 -0.05668528
000370 7a 83 cc 3d d7 df 9e bd 7d 8d d8 bc bc b8 88 bb
       0.09986015 -0.07757538 -0.026434654 -0.0041724127
000380 ba 34 c0 bd f6 52 1d 3d 81 e9 84 bc 72 11 97 3d
       -0.09385057 0.038409196 -0.016224625 0.07376374
000390 82 c8 9b 3d ed 47 c7 bb e1 0f 4a bd 15 a9 17 3d
       0.07606603 -0.0060815723 -0.04933155 0.037026484
0003a0 af 29 b1 3c 0e 50 9c 3c a9 1d 93 3d e8 be 59 bd
       0.021626322 0.019081142 0.071833916 -0.053160578
0003b0 d8 1a c6 3d 3f 69 cd bd 0d 60 95 bd 4e 48 d2 bd
       0.09673089 -0.1002984 -0.07293711 -0.10267697
0003c0 18 44 dd 3c 0f d1 2e bd 85 65 04 3d 96 63 bf bd
       0.027010009 -0.042679843 0.03232338 -0.093451664
0003d0 2b 83 76 bd f0 3f bb bd 26 c4 13 bc c7 6f 07 3d
       -0.060183685 -0.091430545 -0.009018933 0.033065584
0003e0 65 f6 94 bd aa c6 84 bc 68 a4 d9 3c 8a 7c 21 3d
       -0.072735585 -0.016208012 0.026567653 0.03942541
0003f0 4c ab 8c bd dc d0 85 3d e4 90 d2 3c 3e ad 34 bc
       -0.0686861 0.065339774 0.025703855 -0.011027632

bn1.weight f4 [512]
000000 1d a6 80 3f bf e9 83 3f 21 22 86 3f f7 1e 87 3f
       1.0050694 1.0305709 1.0479165 1.0556325
000010 b0 86 65 3f 8e f3 82 3f 8f 8a 87 3f 1a 96 7a 3f
       0.8965864 1.0230577 1.058916 0.97885287
000020 ae 81 80 3f de fb 8b 3f a6 ee 82 3f 1f b7 8e 3f
       1.0039575 1.0936239 1.022908 1.1149634
000030 43 41 7c 3f ff 52 8f 3f 59 76 6d 3f 13 23 84 3f
       0.9853708 1.1197203 0.9275871 1.0323204
000040 6f bb 72 3f 23 e3 79 3f 7f c6 6d 3f 7a 92 70 3f
       0.9481725 0.9761221 0.92881006 0.93973505
000050 cc d8 87 3f 80 71 74 3f df 13 74 3f 72 11 6e 3f
       1.0613036 0.9548569 0.9534282 0.9299537
000060 1e 18 86 3f 29 21 7f 3f 9b 6f 82 3f e9 48 89 3f
       1.047611 0.99659973 1.0190309 1.0725375
000070 67 59 76 3f 3f 1c 84 3f 41 f3 7d 3f 78 ad 7c 3f
       0.9623017 1.032112 0.991993 0.9870219
000080 ec 9c 89 3f cb 11 79 3f b2 08 85 3f 71 2e 82 3f
       1.0751014 0.97292775 1.0393279 1.0170423
000090 91 df 7c 3f 05 71 70 3f 2b ea 82 3f d8 41 76 3f
       0.98778635 0.93922454 1.0227712 0.9619422
0000a0 f9 37 83 3f 7c b7 87 3f 4e 9e 77 3f f2 b9 88 3f
       1.0251456 1.060287 0.9672593 1.0681746
0000b0 bf 11 7d 3f e2 1a 68 3f 1f b2 7b 3f f6 80 6a 3f
       0.98855203 0.9066602 0.98318666 0.9160303
0000c0 02 c2 91 3f 1c 3d 62 3f 53 47 68 3f 36 63 85 3f
       1.1387331 0.88374496 0.9073383 1.0420902
0000d0 db d4 84 3f 93 22 88 3f f3 9f 8a 3f 9a 74 7a 3f
       1.0377458 1.0635551 1.0830063 0.9783417
0000e0 53 0a 81 3f 04 1b 7e 3f 95 33 7c 3f af 8b 7a 3f
       1.0081276 0.9925997 0.9851621 0.9786939
0000f0 46 40 79 3f 03 3b 7d 3f 42 fc 86 3f 03 4d 77 3f
       0.973637 0.9891817 1.0545733 0.96601886
000100 e7 bc 81 3f a5 68 61 3f 95 89 71 3f 2a 1d 87 3f
       1.0135773 0.880503 0.9435056 1.0555775
000110 7a 6a 7b 3f 39 e3 81 3f 02 a6 85 3f 43 2c 86 3f
       0.98209345 1.0147468 1.0441287 1.0482258
000120 f6 43 84 3f c8 62 6a 3f f4 95 7f 3f d4 ea 80 3f
       1.033324 0.9155698 0.99838185 1.0071664
000130 c0 34 89 3f f7 91 74 3f 6c db 86 3f bc 5b 78 3f
       1.0719223 0.95535225 1.0535712 0.97014976
000140 95 9b 6d 3f 3f 0c 8e 3f 27 2e 7d 3f f0 7a 85 3f
       0.92815524 1.1097487 0.9889855 1.0428143
000150 20 72 8f 3f 40 63 77 3f 28 e7 72 3f ca b6 6f 3f
       1.1206703 0.9663582 0.94883966 0.9363829
000160 88 98 87 3f 69 22 6d 3f 71 17 74 3f 82 e9 7f 3f
       1.0593424 0.9263063 0.9534827 0.9996568
000170 d8 de 68 3f 4a b2 76 3f 6b f9 84 3f bf 39 60 3f
       0.9096503 0.963658 1.0388616 0.87588114
000180 07 04 80 3f 38 8a 7b 3f 98 fe 88 3f 3a 11 82 3f
       1.0001229 0.9825778 1.0702696 1.0161507
000190 e6 4c 7c 3f 62 1f 7c 3f 59 79 6e 3f 7f 6d 8c 3f
       0.9855484 0.98485386 0.9315391 1.0970916
0001a0 7a 56 86 3f 0f 30 71 3f e8 f4 6d 3f 62 1d 92 3f
       1.049514 0.94213957 0.9295182 1.1415217
0001b0 26 6a 70 3f 82 64 87 3f 03 ab 83 3f bb 20 7b 3f
       0.9391197 1.0577548 1.0286564 0.9809682
0001c0 86 27 8b 3f 20 66 80 3f f9 a5 74 3f 10 b6 83 3f
       1.0871437 1.0031166 0.95565754 1.0289936
0001d0 67 b8 8a 3f b7 6d 76 3f c9 bc 81 3f 51 c0 7b 3f
       1.0837525 0.9626116 1.0135738 0.98340327
0001e0 ca bb 7c 3f c8 07 73 3f 8e 57 6a 3f 29 01 7e 3f
       0.98724043 0.9493375 0.9153985 0.9922052
0001f0 f5 9a 84 3f 18 6e 86 3f 89 9b 79 3f bf ce 74 3f
       1.0359789 1.0502348 0.9750295 0.9562797
000200 93 81 86 3f cd b2 80 3f d7 4e 83 3f 56 c2 86 3f
       1.0508293 1.0054566 1.0258435 1.0528057
000210 14 8b 85 3f 2d 1f 67 3f 51 82 8e 3f 2e 14 69 3f
       1.0433068 0.90281945 1.113352 0.91046417
000220 e5 aa 87 3f b4 07 7f 3f fb d9 7e 3f a7 76 81 3f
       1.0599028 0.9962113 0.9955136 1.0114335
000230 57 2d 72 3f fc ce 84 3f 14 d7 89 3f 18 b5 8b 3f
       0.94600433 1.0375667 1.0768762 1.091464
000240 51 a7 5b 3f 48 89 80 3f 6c 90 71 3f cf 6c 63 3f
       0.8580218 1.0041895 0.94360995 0.88837904
000250 7d 00 5e 3f 18 f8 5f 3f 95 37 71 3f ee 51 80 3f
       0.86719495 0.87487936 0.94225436 1.0025003
000260 4c ff 6a 3f d1 f0 81 3f 39 36 83 3f 8a dc 71 3f
       0.917958 1.0151616 1.0250922 0.9447714
000270 b5 2e 79 3f ed c7 79 3f 6d c5 80 3f b8 16 80 3f
       0.97336894 0.9757069 1.006025 1.0006933
000280 7b 4f 7f 3f 69 dc 84 3f a8 b1 81 3f 67 f9 7a 3f
       0.9973065 1.0379764 1.0132341 0.9803681
000290 12 cf 6c 3f 0b 78 7c 3f 56 13 7e 3f 1d 37 7c 3f
       0.92503464 0.9862067 0.99248254 0.98521596
0002a0 cd bd 64 3f 86 d2 5b 3f c3 f6 71 3f a4 c5 7c 3f
       0.89352113 0.8586811 0.94517154 0.98739076
0002b0 cc 6c 82 3f 93 8c 6f 3f 7a f1 86 3f a3 34 80 3f
       1.0189452 0.93573874 1.0542443 1.0016063
0002c0 8e ce 82 3f 01 f4 78 3f c4 87 81 3f fd 80 6c 3f
       1.0219285 0.9724732 1.0119557 0.9238432
0002d0 ed 77 81 3f 3b df 7f 3f b4 12 82 3f 08 3c 86 3f
       1.0114723 0.9995 1.0161958 1.048707
0002e0 e9 2f 95 3f 71 0b 84 3f ff a6 89 3f 64 35 75 3f
       1.1655246 1.0315992 1.0754088 0.9578459
0002f0 c1 ad 78 3f 99 f1 85 3f e6 1d 84 3f 4f 63 89 3f
       0.9714013 1.0464355 1.0321624 1.0733432
000300 4d 1a 7c 3f 14 b6 7b 3f c5 e4 6c 3f c5 fe 73 3f
       0.9847763 0.98324704 0.92536575 0.9531062
000310 d5 7c 7b 3f 80 7f 86 3f fa 37 72 3f cf d1 77 3f
       0.98237354 1.050766 0.94616663 0.9680452
000320 55 ab 82 3f 15 cf 70 3f 28 ac 6d 3f e4 52 87 3f
       1.0208536 0.9406598 0.92840815 1.0572171
000330 44 1c 84 3f c8 a5 8b 3f 0b fe 8b 3f c2 ab 63 3f
       1.0321126 1.0909967 1.0936903 0.88933957
000340 36 db 77 3f fb 20 82 3f 29 4d 84 3f 1e 7e 81 3f
       0.96818864 1.0166315 1.0336047 1.0116613
000350 c9 7e 5a 3f 27 1f 76 3f a3 39 7d 3f 9b 1a 76 3f
       0.8534971 0.96141285 0.9891607 0.96134347
000360 db 22 7e 3f a8 bb 8c 3f 82 88 6e 3f f9 34 80 3f
       0.99271935 1.0994768 0.93177044 1.0016166
000370 5a 21 82 3f c9 8b 87 3f 28 fe 77 3f d1 37 86 3f
       1.0166428 1.0589534 0.96872187 1.0485784
000380 f1 61 86 3f 53 d2 80 3f cb 82 70 3f 85 24 71 3f
       1.0498639 1.0064186 0.93949574 0.9419635
000390 de b9 7c 3f ac 76 8f 3f 78 34 70 3f aa c7 82 3f
       0.9872111 1.1208091 0.9383006 1.0217183
0003a0 cf 12 86 3f de ea 81 3f 73 51 7f 3f a1 93 78 3f
       1.047449 1.0149801 0.99733657 0.97100264
0003b0 5f 6d 84 3f fd 99 60 3f ec 0e 88 3f 7c 9a 81 3f
       1.0345877 0.8773497 1.0629554 1.012527
0003c0 11 68 7d 3f 0a c5 70 3f fa f0 80 3f 7e 81 7d 3f
       0.9898692 0.9405066 1.007354 0.99025714
0003d0 b0 61 78 3f 3f 49 82 3f 38 66 74 3f 38 01 7f 3f
       0.9702406 1.0178603 0.95468473 0.99611235
0003e0 95 19 6a 3f e5 ed 8a 3f 60 2c 83 3f e1 85 7a 3f
       0.91445285 1.085385 1.0247917 0.97860533
0003f0 01 5d 62 3f b4 4d 6c 3f 60 a3 87 3f 13 a4 73 3f
       0.8842316 0.92306066 1.0596733 0.9517223

bn1.bias f4 [512]
000000 94 a1 53 3c bb 63 7f 3d f5 c1 ab 3d e6 8d 60 bd
       0.012916941 0.06235097 0.08386604 -0.054822825
000010 c6 1b 10 be 43 c4 00 bc c5 55 cd bd a2 2a fe bd
       -0.14073095 -0.007859292 -0.10026125 -0.12410475
000020 37 ef 4f be 02 63 eb 3d 47 ba e7 bc 29 dd 9d bd
       -0.20306097 0.114934936 -0.028287066 -0.077081986
000030 e2 4f e2 bc c5 ce 56 3c 51 bf ae bd 0b b1 35 3d
       -0.027625982 0.013110821 -0.085325845 0.044358294
000040 8b bf d8 bc 3f bc 2c bd 07 ed bf bd 27 11 da bd
       -0.026458522 -0.042171713 -0.09371381 -0.10647803
000050 2a fb d6 3c 0b 06 03 be 33 02 f8 bd b5 47 4b be
       0.026242811 -0.12795274 -0.121097945 -0.19851573
000060 15 62 c9 bc 8d c3 a6 bd 1b be 3f bd 49 49 a9 3c
       -0.024582902 -0.08142767 -0.046812158 0.020664828
000070 1f dc 90 bd f4 02 3c 3d a6 ab 2a 3d 8d fd b8 bc
       -0.07073235 0.045901254 0.041667603 -0.02258184
000080 b0 aa d4 bb 79 a3 04 be 6d b2 a1 bd c3 ac dc 3c
       -0.006490074 -0.12952985 -0.0789536 0.026937848
000090 42 ea 5c 3d 70 76 04 be dc 3b 32 bd a5 0c 8b bc
       0.053934343 -0.12935805 -0.043514118 -0.016973803
0000a0 20 9d a6 bc 27 ab 8d 3c e0 0f 11 be d9 f8 ec bc
       -0.020338595 0.017293526 -0.14166212 -0.028927254
0000b0 20 c8 0a be a7 c2 55 bd 6a da 0e be ed 94 d3 bd
       -0.13552904 -0.052187588 -0.13950506 -0.1033114
0000c0 92 c6 e5 bd fb 2b 76 be 5a 74 6e bd d4 2c 3f 3c
       -0.11219515 -0.24040215 -0.05821643 0.011668403
0000d0 25 ba 24 3d 3a 00 a3 bc 47 61 dd bc 1b 41 c4 bd
       0.040216584 -0.019897569 -0.027023925 -0.095827304
0000e0 9c f9 18 bd 43 07 bc bd 1b 3e 00 bd 65 6d 80 bd
       -0.03734742 -0.091810726 -0.03130923 -0.06270865
0000f0 58 8b 89 bd ba fb 67 bd b9 7b c7 3b 45 09 00 bd
       -0.06716031 -0.05663655 0.006087747 -0.03125884
000100 bc 78 6d bd 45 f9 a5 bd 4b a0 6a be da 76 a4 bb
       -0.05797647 -0.08104185 -0.2291271 -0.005019051
000110 6a 89 d5 bd 07 fd 24 3c e3 07 b6 3d 3b 03 15 bd
       -0.104266 0.010070092 0.08888223 -0.036380034
000120 4b 51 f8 bd 5d fd 03 be f7 4c 50 bd 59 3d e8 bc
       -0.121248804 -0.12889619 -0.05085465 -0.028349565
000130 6a 63 3b 3d 9d 56 44 be 4d 23 28 be 14 a9 9e bd
       0.045749106 -0.19173665 -0.16419716 -0.07747093
000140 b4 5f 4a bd 2b fa bd bd 4d f5 45 bd 55 b4 a4 3c
       -0.049407676 -0.092762314 -0.04832964 0.02010552
000150 e1 b9 40 bd e0 d9 0d bd e7 65 08 be f7 aa b9 bd
       -0.047052268 -0.03463161 -0.13320123 -0.09065812
000160 17 3d f1 3c 54 d2 0c bb 12 44 62 bd 06 f8 97 3c
       0.029448075 -0.002148767 -0.0552407 0.018550884
000170 76 22 3b be 78 af 6d bd 45 59 76 bd 61 da c8 bd
       -0.18274865 -0.05802867 -0.060143728 -0.098072775
000180 a9 ef 6e bd ea df dc bc 09 6e 1a 3a e6 9a d6 bc
       -0.058334026 -0.02696224 0.00058910303 -0.026196908
000190 16 ad c7 bc 0c 97 ca bd 70 28 4b bd 25 cc e9 3c
       -0.024374526 -0.09892091 -0.04959911 0.028539727
0001a0 5e 2a 6d bc 99 25 1b be 26 57 05 bd fa e3 a9 bd
       -0.014475433 -0.15151061 -0.032553814 -0.08295436
0001b0 22 52 53 bd 31 13 06 bd 60 05 86 bb 5a 5b da bc
       -0.051592 -0.032733146 -0.004089996 -0.026654888
0001c0 f7 fe d5 3b c5 ca fe 3c 91 9b 01 3c 11 3f c6 bd
       0.0065306383 0.031102547 0.007910625 -0.09679998
0001d0 f3 73 fa bd bf d3 4c bd 16 f8 75 3c 7d f5 d1 bd
       -0.12229147 -0.050006624 0.015012762 -0.10251901
0001e0 85 a3 da bd ba 5b ba bd fa ab ea bd 91 bf f9 bd
       -0.1067572 -0.09099527 -0.11458583 -0.121947415
0001f0 e1 11 60 bd 12 6b 40 3c 6c d7 b0 bd 9d a4 9a bc
       -0.05470455 0.011744278 -0.086348385 -0.018877322
000200 b1 b5 a0 bd d7 be 89 bd 5f 05 2b bd 18 9a 3f 3d
       -0.07847155 -0.06725853 -0.04175317 0.046777815
000210 fe f3 6e 3c 6b 42 3d be 55 d8 14 3d b4 e5 ca bd
       0.014584539 -0.18482368 0.036339123 -0.09907094
000220 90 7f 11 3d 2a 83 ff bc fe e4 bc bd 32 1e 19 bd
       0.035522044 -0.031190474 -0.09223364 -0.037382312
000230 46 1d fe bc 68 7f 75 bd 73 8c 1e bc 8b b1 cf bd
       -0.031019818 -0.059935957 -0.00967704 -0.101412855
000240 fd 8f ce bd d4 26 03 bc 32 7e 11 bd ab 69 ab bd
       -0.10086057 -0.008004863 -0.03552074 -0.08369764
000250 5c 6d e6 bd 71 67 92 bd 57 04 29 bd f5 42 94 3b
       -0.112513274 -0.07148636 -0.041263904 0.0045245835
000260 f4 11 fc bd 8c 9d 4a bd 09 47 9a 3b b1 f5 89 bd
       -0.12308112 -0.049466655 0.004708175 -0.06736315
000270 2c 55 a9 bc ff 38 9c bd fb a5 41 bc 8b 6a d4 3b
       -0.020670496 -0.07628059 -0.011819358 0.0064824275
000280 61 30 29 be 26 65 b4 3b 0e 2a a0 bd 4a 94 f5 bd
       -0.16522361 0.005505222 -0.07820521 -0.119911745
000290 98 ef f9 bd 86 7c e5 bd 38 9c 55 3c 98 40 ff bc
       -0.12203902 -0.112053916 0.013037734 -0.03115873
0002a0 c8 d5 06 be 98 94 7e be 3a e5 36 be 80 54 15 bd
       -0.13167489 -0.24861372 -0.1786088 -0.03645754
0002b0 61 72 b0 bd a2 43 3d bd f6 f2 8b 3d 53 71 39 bc
       -0.08615566 -0.046207078 0.068334505 -0.0113185225
0002c0 be a3 82 3d ff 94 97 bc 54 03 2a 3c 60 00 13 be
       0.063788876 -0.018503664 0.01037677 -0.14355612
0002d0 50 56 e7 3b 97 df 16 be 7f 8e e9 bd 95 8f 9e 3d
       0.00705985 -0.1473373 -0.11404132 0.0774223
0002e0 f4 39 41 3d 53 c5 37 3d e6 55 a3 3d 69 45 fb bd
       0.04717441 0.044865917 0.07975368 -0.12269098
0002f0 1f 20 e8 bd 10 9a 1a 3c 11 37 12 be 71 32 79 3c
       -0.113342516 0.009436145 -0.14278819 0.01520978
000300 40 aa 8c 3b d4 d7 cc bd 97 8e a2 bd cd 98 aa bd
       0.0042927563 -0.100021034 -0.07937353 -0.08329926
000310 e8 1d 29 bd d7 8e 68 3c a5 4b 71 be a9 44 ee bd
       -0.041288286 0.014194212 -0.23564012 -0.1163419
000320 b9 da bc 3c 80 0f 93 be c4 ec 96 bd f8 8f a3 39
       0.023053514 -0.28722763 -0.07369378 0.00031197048
000330 83 22 32 3d df 78 5c 3d a3 27 1d bd 49 75 2c be
       0.043489944 0.05382621 -0.03836788 -0.16841616
000340 ff f1 78 bc 31 1b 9a 3c 94 1c 32 bc 61 50 ce bc
       -0.015194415 0.018811794 -0.010871071 -0.025184812
000350 0b 95 19 be 97 d1 b2 3a 52 14 03 be 95 d7 30 bd
       -0.14998262 0.0013642785 -0.1280072 -0.043174345
000360 d7 b7 f0 bd ba b0 c0 3d 89 7e 93 bd c4 a5 ba bc
       -0.11753815 0.09408708 -0.07201869 -0.022784121
000370 c5 e3 85 bd 31 31 d5 3b 29 7e 1f bd cf 97 98 bc
       -0.06537584 0.006506108 -0.038938675 -0.018627075
000380 1c e3 83 3c bd 2c 2f 3d 98 17 0d be 15 c0 14 be
       0.016099505 0.042767275 -0.13778532 -0.14526398
000390 16 45 f8 bc c1 05 b9 3d d3 f7 86 bd 1a 54 a0 bd
       -0.03030638 0.090343006 -0.065902375 -0.07828541
0003a0 90 18 28 3d 42 6f eb bd 39 0a 3b be f0 a3 ae bd
       0.04103905 -0.1149583 -0.18265618 -0.08527362
0003b0 aa a5 fd bc 20 37 c6 bd 71 c4 36 bd 7e 6c c5 bc
       -0.030962784 -0.09678483 -0.044620935 -0.024099585
0003c0 67 51 30 bd 0b 6d fd bd 63 e9 18 bd 53 44 9b bd
       -0.04304638 -0.12374314 -0.03733195 -0.07581391
0003d0 c9 77 bc bd 72 89 08 bd b9 6b 8f bd 1e b6 dd bc
       -0.09202535 -0.033334203 -0.07002968 -0.02706438
0003e0 58 c8 53 bd db 8c ae bd 02 f3 a8 bc 1f 78 12 bd
       -0.051704735 -0.0852296 -0.020623688 -0.035759088
0003f0 9e 0d 29 be 59 3c 5a bd e0 a8 0a bd e0 07 b6 be
       -0.16509101 -0.05328021 -0.033852458 -0.35552883

bn1.running_mean f4 [512]
000000 9c 95 94 3e bc 5a b4 3e 4f d4 fc 3c f7 a7 0a 3e
       0.29020393 0.35225475 0.030862955 0.13540636
000010 e3 e7 e0 be c6 c6 56 3e 07 4a 87 3c 56 fe 74 3d
       -0.43926916 0.20974264 0.016514791 0.059812866
000020 1a f7 79 3d 33 5d a3 bd 02 05 de be 0b d7 83 b9
       0.06102667 -0.07976761 -0.43363196 -0.00025146487
000030 e6 3f 3d 3e ac 33 60 3e 6d 4e 8c be cd 0e 85 3e
       0.18481407 0.21894711 -0.27403584 0.25987855
000040 ad b7 7a be 28 4f 90 bd 8c 43 ff bd 02 97 e3 3d
       -0.24484129 -0.07046348 -0.124640554 0.11112787
000050 13 6c 5d 3d d0 fb 4b 3e d2 1a 42 bc 11 f0 02 3d
       0.054058146 0.19920278 -0.011847215 0.031967226
000060 0f d6 89 bd 41 d4 b6 3c 4e bc 7c 3e 6f e1 bd bc
       -0.067302816 0.022318007 0.24681208 -0.023178784
000070 f6 b9 d8 be 72 43 b4 3d 87 48 4f 3e 9d 5f fc bd
       -0.42329377 0.08801927 0.2024251 -0.12322924
000080 89 b6 6f 3e 22 3d 50 3e 59 06 cb 3c 4a 97 64 be
       0.23409475 0.2033582 0.0247833 -0.22323337
000090 11 84 16 be 60 53 14 3e bc fa 86 bc 27 94 9f bd
       -0.14698817 0.1448493 -0.016476981 -0.0779193
0000a0 27 0d af 3e 91 58 28 3e 6b c9 10 3e 4e f5 03 be
       0.34189722 0.16440035 0.14139335 -0.12886545
0000b0 cf f7 18 be a0 19 aa 3b 5a a6 9c 3e 60 ee 1b be
       -0.14938281 0.005191043 0.30595666 -0.15227652
0000c0 55 8f 76 3e bf e8 9c 3c 56 9b 0c 3e cd d9 b0 3d
       0.24078114 0.01915395 0.13731131 0.08635292
0000d0 89 54 8b be 14 8b 82 bb b2 5e 1d 3e 93 26 ae bd
       -0.27212933 -0.0039838646 0.15368155 -0.08503451
0000e0 1d 6d d6 be 1a cb 65 bd 57 83 83 3d e5 27 31 3e
       -0.41880122 -0.056101896 0.064215355 0.17300375
0000f0 60 df 62 3e 5e e0 55 be b4 59 a6 3c 6d ae 16 bd
       0.22155523 -0.2088637 0.020306446 -0.03678744
000100 96 cc fc bd fb d3 c2 3d 5f e7 3d be d3 fd 32 be
       -0.12343709 0.09513088 -0.18545292 -0.17479639
000110 27 93 13 3e 46 70 a3 bd ec 31 65 3d 62 55 e2 3c
       0.14411603 -0.07980399 0.055955812 0.027628604
000120 e9 75 d3 bd 32 ef 8d be 0d 10 43 3e 28 dd a4 bd
       -0.10325224 -0.27721554 0.19049092 -0.08049995
000130 65 16 71 3d 47 26 b8 bd 2e 17 92 be 4a c4 e4 3d
       0.058859248 -0.08991676 -0.2853331 0.11170252
000140 9c 0e e0 bd 43 ce 7e bd e4 2f 41 3d 2a 5f b2 3e
       -0.109402865 -0.062208425 0.047164813 0.3483823
000150 44 31 0d 3e 7b 70 52 3e 8a 03 0b be 98 46 cc bd
       0.13788325 0.2055072 -0.13575569 -0.09974402
000160 03 69 5f 3c d2 38 f7 3d b6 59 cd ba 7a b1 3f be
       0.013635877 0.120713845 -0.0015666995 -0.18720046
000170 3e c5 d9 bd 0c 8f 2d 3d 4e f7 fc 3d 48 41 13 3e
       -0.10633324 0.04237275 0.12351857 0.14380372
000180 89 5b fa 3e b7 19 16 be 8e 05 68 bd 5a f1 d5 bd
       0.4889796 -0.14658247 -0.056645922 -0.10446425
000190 40 d3 a8 bd c5 3b b5 bd a9 49 8e 3e f9 3b 9e be
       -0.08243418 -0.08849291 0.27790573 -0.3090513
0001a0 3c 09 66 be f9 5a ac 3d 06 39 92 3d b9 fb da bc
       -0.2246446 0.08415789 0.071397826 -0.026731359
0001b0 c8 ae 08 3e 47 60 93 bd cc b6 84 3c 5a 9e a1 bd
       0.13347924 -0.07196098 0.016200446 -0.07891531
0001c0 f2 fa 5d be f4 50 3d 3e 7a 99 83 3d 50 07 7f 3d
       -0.2167776 0.18487912 0.06425758 0.062262833
0001d0 a4 1a 30 3d b4 58 5b 3e 2f 5d 66 3e c7 1a 27 bc
       0.042994156 0.21420556 0.22496484 -0.010199255
0001e0 2f a7 dd 3d 28 2b 37 bd d9 f7 d8 3c 38 55 0f be
       0.10822903 -0.04471889 0.02648537 -0.13997352
0001f0 ae 62 a3 3d c1 2b 08 be 13 a2 76 be 5b 19 71 be
       0.07977806 -0.13297941 -0.24085264 -0.23544829
000200 61 75 47 3e 59 f7 49 bd 59 81 65 3e 65 3f 07 bd
       0.1947837 -0.049308155 0.22412623 -0.033019442
000210 b3 c4 70 3e 6b 87 31 bd 6f 71 ab 3e 6e 35 d5 3d
       0.23512535 -0.043342035 0.3348498 0.104105815
000220 76 c6 00 3e 19 ea 9e bd e0 51 66 bd 98 a2 2d 3e
       0.12575707 -0.07759494 -0.056230426 0.16956556
000230 03 a4 27 3e 84 0a 28 3e 6c 9a fb 3d 04 00 b9 3d
       0.1637116 0.16410261 0.12285313 0.09033206
000240 54 9e a8 be 5a 6e 0e 3e d8 2d 78 bd 8c ba 82 be
       -0.32933295 0.13909283 -0.060590595 -0.2553295
000250 c5 c1 33 be 06 7a 7f bc 0c e6 44 be ab 01 11 3e
       -0.17554386 -0.0155930575 -0.19228381 0.14160793
000260 e6 66 3d 3e 01 ed 15 bd 48 d3 03 3d dd c5 16 be
       0.18496284 -0.036602978 0.032183915 -0.14723916
000270 db f3 4b be ac 3c 2a be c2 45 82 3d 56 96 bd bd
       -0.19917242 -0.16624707 0.063609615 -0.0925719
000280 19 41 24 bd 48 23 1a 3e 1a 06 07 3e 7e 9b de bd
       -0.040101144 0.15052521 0.13185921 -0.108695015
000290 28 44 67 be 64 97 98 be 26 cd 24 3e 05 9b 10 be
       -0.22584593 -0.29803002 0.16093883 -0.14121635
0002a0 c8 9c a5 3c ac 2d bf be 04 f2 e3 be a1 8f 72 bd
       0.02021636 -0.37339532 -0.4452058 -0.059219006
0002b0 c2 77 a2 3d ab a5 84 3e 66 f0 4d 3b d2 50 51 bd
       0.07932998 0.25907645 0.0031423806 -0.051102467
0002c0 9b 78 4f 3e 51 6b ba bd 38 52 9d 3e 8d 22 ca 3c
       0.20260851 -0.091025 0.3072679 0.024674678
0002d0 ff 9e 53 bd 0b 37 a4 bd 7e 7a e5 3c 45 43 90 3e
       -0.051665302 -0.08018311 0.02801251 0.28176323
0002e0 d1 92 a0 3d 5b f2 b4 bd d7 31 61 3d ad 25 18 3d
       0.07840503 -0.08835288 0.05497917 0.037145305
0002f0 03 3d 54 bd da c2 53 be 68 36 40 bc 6a 00 ce 3d
       -0.051815998 -0.20679799 -0.011731721 0.10058673
000300 05 7c 05 3e 52 15 17 be ee f5 fe 3d b1 ca 8b bd
       0.13035591 -0.14754227 0.12449251 -0.0682577
000310 fb 59 70 3e 5a d6 d0 bd 4f 24 25 3c f8 85 90 3e
       0.23471825 -0.10197134 0.010079457 0.2822721
000320 11 ae b1 bd 7a db 26 be 4c c1 16 be 9e a4 74 3e
       -0.08675779 -0.16294661 -0.14722174 0.23890921
000330 8b ac b4 3e 50 39 21 be 39 6c f1 3d da 1b be be
       0.3528789 -0.15744519 0.1178822 -0.37130624
000340 05 3f 61 3c 45 23 2e 3f 86 e1 97 be 78 c7 52 3d
       0.013747935 0.6802257 -0.29664248 0.05145976
000350 8c e4 9f bd 58 4d 92 3e ee a8 9a 3d 96 5c 1a bf
       -0.07807264 0.28574634 0.07551752 -0.60297525
000360 8b c6 16 3d cb 52 31 be 66 00 b4 bd 5c 0e e5 bd
       0.03681044 -0.1731674 -0.087891385 -0.111843795
000370 80 46 fb 3d c4 f9 53 be f0 47 06 be c2 85 3e 3e
       0.12269306 -0.20700747 -0.1311338 0.18605712
000380 20 01 be bc 75 f1 ed bd 3b 41 7d bc 96 13 d9 3d
       -0.023193896 -0.1161832 -0.015457447 0.10599439
000390 6e b0 2e be c0 08 2b be 60 0d c3 3e c6 4f 2d 3e
       -0.1705949 -0.16702557 0.38096142 0.16924962
0003a0 0e 60 a1 bd 3c 7d 30 3b 0f 21 81 3e eb 06 66 be
       -0.07879649 0.0026930114 0.25220534 -0.22463576
0003b0 07 d4 e9 3e 21 96 8b ba 78 b2 9a 3e a7 1a 05 be
       0.45669577 -0.00106496 0.30214286 -0.12998448
0003c0 6a 9b e1 3e 78 84 1b be 53 cc 0e be e7 89 c9 bc
       0.44063884 -0.15187252 -0.13945131 -0.02460189
0003d0 ce 0e c5 3d 16 f6 ab bd dc 7d 7b be c0 1b ab bc
       0.096219644 -0.083965465 -0.2455973 -0.020887256
0003e0 6c b6 e8 bd f2 08 26 3e 76 a4 93 3d c5 02 6c 3e
       -0.11362919 0.1621435 0.07209103 0.23047931
0003f0 0c 76 a0 be bb 2e 5a 3e 63 4b 70 3e d0 66 f7 bc
       -0.31340063 0.21306889 0.23466258 -0.030200392

bn1.running_var f4 [512]
000000 1e 2a 4e 3d f9 d7 52 3d df 97 3e 3d 5d 5d 75 3d
       0.050333135 0.0514755 0.046531554 0.05990349
000010 a2 35 e8 3c 0f 13 17 3d 05 e6 58 3d 88 27 24 3d
       0.028345887 0.03688341 0.05295374 0.040076762
000020 9c 07 e8 3c 2b 4e 51 3d 60 ef 39 3d 62 82 16 3d
       0.028323941 0.051099937 0.0453943 0.036745436
000030 af 8d 23 3d e5 b9 5d 3d 08 69 bf 3c 3d d5 46 3d
       0.039930042 0.05413236 0.023365512 0.048543204
000040 af 8a 39 3d 37 26 4a 3d 12 68 1f 3d 87 e8 e7 3c
       0.045298275 0.04935285 0.03891761 0.02830912
000050 b1 cd 16 3d f9 83 11 3d 37 54 14 3d 47 2f df 3c
       0.036817256 0.03552625 0.036213126 0.027244223
000060 23 7c 49 3d 26 c3 3b 3d e0 a2 34 3d 87 bc 6d 3d
       0.04919065 0.045840405 0.044100642 0.05804112
000070 3e 96 51 3d f3 67 75 3d 26 8a 2e 3d 39 41 12 3d
       0.051168673 0.059913587 0.042612217 0.035706732
000080 05 df 2e 3d f8 d5 0a 3d 9f f7 30 3d 66 f4 21 3d
       0.042693157 0.033895463 0.0432049 0.039539717
000090 38 91 1b 3d d2 e7 d6 3c 07 ef 83 3d 62 d3 23 3d
       0.03798029 0.026233587 0.06442075 0.039996512
0000a0 15 2d 5f 3d 94 ff 5a 3d cf af 13 3d 20 98 4a 3d
       0.054486353 0.053466395 0.036056336 0.049461484
0000b0 0a 1e ef 3c e7 5d 2e 3d 56 37 fd 3c a3 c5 01 3d
       0.029189128 0.04257002 0.030910175 0.03168262
0000c0 a6 1a 93 3d 1d f4 21 3d e2 28 07 3d 1e 9f 63 3d
       0.07182817 0.039539445 0.032997973 0.055571668
0000d0 06 11 e5 3c 30 e0 53 3d 02 d7 89 3d 0c b4 33 3d
       0.027962219 0.051727474 0.067304626 0.043872878
0000e0 88 cf 21 3d 83 e3 14 3d 8d bd dc 3c e8 5e 05 3d
       0.039504558 0.036349785 0.026945854 0.032561213
0000f0 0f 76 28 3d 4b 1d 11 3d 2a c7 50 3d c2 65 3d 3d
       0.041128214 0.035428327 0.050971188 0.046239622
000100 38 8f 47 3d 4f 7b 11 3d 05 ff 06 3d 7f b3 39 3d
       0.04872057 0.035517987 0.03295805 0.045337196
000110 73 b0 13 3d 6a fc 31 3d 63 0f 6a 3d 9e 93 ed 3c
       0.036056947 0.04345361 0.05714358 0.029001053
000120 81 48 12 3d 74 99 eb 3c 4a 39 32 3d 69 52 0b 3d
       0.035713676 0.028759696 0.043511666 0.03401414
000130 b8 c2 d9 3c 11 b3 13 3d a1 1f 39 3d 4d c1 09 3d
       0.026582107 0.036059443 0.04519618 0.03363161
000140 ae 25 db 3c 52 9a 69 3d b5 54 1b 3d 4b 4e 39 3d
       0.026751366 0.057031937 0.03792258 0.04524068
000150 59 c0 6a 3d 06 0d 54 3d 2d 51 18 3d f8 ff 37 3d
       0.057312343 0.051770233 0.03718679 0.044921845
000160 0e 76 54 3d 0a bb 21 3d 18 33 f9 3c 4a 24 dd 3c
       0.0518704 0.039485015 0.030419871 0.026994843
000170 40 cb 31 3d d1 09 11 3d db 45 45 3d 8f 6e c9 3c
       0.043406725 0.035409752 0.048162322 0.024588851
000180 0a 9a 1e 3d 98 62 17 3d 3d 7c 81 3d c2 25 0f 3d
       0.03872112 0.03695926 0.06322525 0.034948118
000190 14 78 22 3d fd f9 bf 3c 1d a4 0a 3d d9 d1 08 3d
       0.039665297 0.023434633 0.033847917 0.03340325
0001a0 73 ec 60 3d 41 9b 21 3d a8 41 18 3d ad 62 7a 3d
       0.054912996 0.039454702 0.03717199 0.06112926
0001b0 a3 3d 2c 3d ca ac 84 3d f8 07 1a 3d 16 2f f1 3c
       0.04205097 0.064782694 0.037605256 0.029441398
0001c0 04 0c 3d 3d c3 05 50 3d 09 32 ec 3c 01 b6 0c 3d
       0.046154037 0.050786745 0.028832452 0.03435326
0001d0 d8 dd 21 3d 8e 76 37 3d 52 57 3c 3d 68 ab d0 3c
       0.039518207 0.044790797 0.045981713 0.025472358
0001e0 ac 6a 1d 3d fe 29 c5 3c 84 4d 3d 3d e5 d3 18 3d
       0.03843181 0.024067875 0.046216503 0.037311453
0001f0 b6 af d7 3c 95 75 61 3d cd e6 11 3d 6b ea 2f 3d
       0.026328903 0.055043776 0.0356205 0.042948168
000200 38 45 7c 3d 6e 24 5c 3d 6b 18 52 3d f6 32 75 3d
       0.06158945 0.05374568 0.051292818 0.059863053
000210 b0 53 44 3d e1 a2 2c 3d a6 c0 82 3d c8 4b 00 3d
       0.047931373 0.04214752 0.06384401 0.03132227
000220 c5 ad 23 3d 09 bd 2c 3d e4 57 0e 3d 78 7c 77 3d
       0.03996064 0.042172465 0.034751788 0.060421437
000230 d6 e4 35 3d a3 50 20 3d 48 bf 6c 3d 9a 29 06 3d
       0.044407688 0.0391394 0.057799608 0.032754518
000240 c5 eb eb 3c ce 21 43 3d 37 c3 20 3d 96 47 f2 3c
       0.028798947 0.04763966 0.03924867 0.02957515
000250 07 d2 0e 3d f5 00 d0 3c 5a b3 d8 3c f2 66 23 3d
       0.034868266 0.025391081 0.026452709 0.0398931
000260 f7 08 1a 3d 16 28 33 3d a6 4b 89 3d 3b cd 1d 3d
       0.037606206 0.0437394 0.06703882 0.0385258
000270 a9 97 17 3d de c6 12 3d 0d b9 d3 3c 9e 61 4c 3d
       0.03700987 0.035834186 0.025845075 0.049897783
000280 fb a2 fd 3c b1 0c 48 3d 3b 70 19 3d f5 a4 14 3d
       0.030961504 0.04884023 0.037460547 0.036290128
000290 d9 c4 4a 3d e2 c9 1b 3d 7b 7b 0d 3d df 6f 23 3d
       0.049504135 0.038034327 0.03454159 0.03990161
0002a0 fe ba 02 3d 9d 51 fa 3c 81 bd 25 3d 2b c4 e5 3c
       0.03191661 0.030556494 0.040463928 0.028047642
0002b0 36 fa 03 3d e6 ab f7 3c 43 fe 0c 3d 2b 36 25 3d
       0.03222104 0.030233335 0.03442217 0.04033486
0002c0 bf 12 11 3d 0b 7b 31 3d 29 19 3e 3d 1f fd f2 3c
       0.03541827 0.043330234 0.046410713 0.029661713
0002d0 1d 0a fe 3c 8d 2e 2a 3d 08 16 1f 3d 36 7f 32 3d
       0.031010682 0.0415483 0.03883937 0.04357835
0002e0 02 3c 46 3d 81 70 10 3d f4 1c 83 3d 11 97 e2 3c
       0.04839707 0.035263542 0.06402007 0.027659925
0002f0 40 63 41 3d d5 00 2d 3d 2e b0 54 3d 59 d4 43 3d
       0.047213793 0.04223712 0.05192583 0.047809932
000300 60 98 12 3d a8 05 35 3d fa 00 02 3d 52 c6 f5 3c
       0.035789847 0.044194847 0.031739213 0.030001793
000310 23 bb 0a 3d 4c 9b 2f 3d da e0 f3 3c d1 01 fe 3c
       0.033869874 0.042872712 0.029770304 0.031006726
000320 d0 da 14 3d 61 b5 19 3d 21 d1 07 3d f0 4f 54 3d
       0.03634149 0.037526492 0.033158425 0.051834047
000330 51 5d 35 3d 78 96 2a 3d c8 50 84 3d a5 3d d6 3c
       0.044278447 0.041647404 0.0646072 0.026152441
000340 4d a3 4b 3d b8 e8 19 3d 73 f7 89 3d 75 c1 2a 3d
       0.049716283 0.037575454 0.0673665 0.0416884
000350 60 fa 0b 3d b9 ca 1e 3d d5 b7 1c 3d de 84 e9 3c
       0.034174323 0.03876755 0.038261253 0.028505739
000360 03 04 18 3d 2d 30 5b 3d 32 ba 12 3d 05 4d 56 3d
       0.0371132 0.05351274 0.0358221 0.052319545
000370 64 4b 81 3d 0e d7 40 3d 39 96 6b 3d 40 0e 74 3d
       0.06313208 0.047080092 0.05751631 0.059583902
000380 51 f6 1e 3d c9 e7 1d 3d fa 74 1a 3d 31 3b 2b 3d
       0.038809124 0.038551126 0.037709214 0.041804496
000390 25 1d 2f 3d 55 4c 57 3d d3 f5 af 3c 5e 27 36 3d
       0.042752404 0.05256303 0.021479523 0.044471137
0003a0 f8 04 4d 3d d2 c5 1b 3d ae 48 37 3d fa 44 62 3d
       0.050053567 0.038030453 0.044747047 0.055241562
0003b0 b6 d1 32 3d 8e de e7 3c 36 ad 90 3d 75 e2 3a 3d
       0.043657027 0.028304365 0.07064287 0.045626123
0003c0 36 a2 1d 3d 59 b1 19 3d 41 0a 0d 3d 7c 9d 44 3d
       0.038484775 0.037522648 0.034433607 0.04800175
0003d0 82 fd e3 3c 78 49 1f 3d c4 c4 e9 3c 58 72 1e 3d
       0.027830843 0.038888425 0.028536208 0.038683265
0003e0 a8 dc 13 3d 28 fc 91 3d ec 3f 33 3d d0 db 3f 3d
       0.036099106 0.07128173 0.043762133 0.04684049
0003f0 c2 84 35 3d 5d bf 12 3d ab b4 87 3d cf 93 1e 3d
       0.04431606 0.03582703 0.066262566 0.03871518

fc2.weight f4 [256, 512]
000000 4e 98 6f 3b b8 f9 4c 3d b3 e5 68 3c 4f 5b a9 3c
       0.0036559287 0.050042838 0.014214921 0.020673422
000010 06 9c 09 3d 9b 51 14 3d e8 ee 80 bd 2e e6 33 3a
       0.03359606 0.036210638 -0.06295568 0.00068626076
000020 4d c5 64 3c 89 61 d3 3b 40 f8 d5 3b 0e b8 a2 3d
       0.013963056 0.006450836 0.006529838 0.07945262
000030 aa 36 b8 3c 68 8e 1c 3d 25 d1 4c bd 58 96 29 bd
       0.022487003 0.038221747 -0.050004143 -0.041403145
000040 9e 58 0f bc d6 57 0a b8 d9 1a 59 bd d6 14 74 3c
       -0.008749155 -3.2983568e-05 -0.05300412 0.014897546
000050 e3 5b a5 3b ef 54 50 bb 67 db 49 bc 6c d7 85 bd
       0.005046354 -0.0031788906 -0.012320376 -0.06535229
000060 ed f3 84 3d ed 51 97 bd d6 49 01 bd fa f8 28 bd
       0.06491838 -0.07388673 -0.031564556 -0.041253068
000070 de 6c b1 bb da 88 80 bd 19 43 4f 3b fb e1 60 3d
       -0.0054145893 -0.06276102 0.0031625687 0.05490301
000080 8d 53 47 bb 06 3c 0e 3d 1c 8b cc bc ca 42 da bc
       -0.003041479 0.03472521 -0.024968676 -0.026643176
000090 ce 15 7d 3c 98 81 ae 3c f3 46 07 bc 66 f0 6a bc
       0.015447093 0.02130203 -0.008256662 -0.014339542
0000a0 cf e7 23 3c 66 49 1b 3b ca 66 92 3c a2 31 5c 3d
       0.010003998 0.0023694872 0.01787128 0.05375827
0000b0 a4 0f 5d bc 65 c7 74 3c 60 99 39 bc 5a f1 b9 3b
       -0.013492499 0.0149401175 -0.011328071 0.0056745233
0000c0 8d 87 0c 3d af e6 fa bb a3 e1 c0 bc 87 f9 40 3c
       0.03430896 -0.007656894 -0.023545092 0.011778242
0000d0 1f 8a ce 3c 65 5c 02 3d d9 d2 4d 3d 9f 1b 72 3d
       0.025212346 0.031826396 0.050249908 0.059108373
0000e0 fc eb fe bb f2 b5 7b 3d 0d aa 93 bd 67 16 65 bc
       -0.0077795964 0.061452813 -0.07210169 -0.013982392
0000f0 12 78 12 bc 0c e4 25 3c bf c1 88 3c 6e 02 1f 3d
       -0.00893976 0.010125171 0.016693948 0.038820677
000100 37 4c 42 3d ea 16 c9 bc e6 c0 67 bd 32 74 d6 ba
       0.047435965 -0.02454706 -0.056580447 -0.0016361533
000110 0e ee 33 bd e4 11 87 3c 58 31 e5 3c c8 bc 8d 3d
       -0.0439282 0.016488023 0.02797763 0.06920773
000120 49 c6 f3 bb b2 97 41 bc 59 dc 1d 3d fb 46 8b bb
       -0.007439409 -0.011815952 0.038540218 -0.004250405
000130 7f b3 28 bc af 1f 7e 3b b3 90 68 ba 2b 5f 9b 3c
       -0.010296701 0.003877621 -0.00088716595 0.018966278
000140 36 d2 48 bd 4d d6 73 3d 87 9f c6 bc 79 7e 1a 3d
       -0.049028598 0.059530545 -0.02424599 0.03771827
000150 9a ce 7b 3c 90 6d 70 bd e0 6e f7 3c 04 25 a5 3c
       0.015369082 -0.058698237 0.030204237 0.020159252
000160 03 fb b3 bc 79 ff c6 bc d5 df 91 3c a3 73 d7 bb
       -0.021970278 -0.02429174 0.017806927 -0.0065750643
000170 aa d8 18 bd 9a 9d 51 3c 1e fd b5 3c ef 28 c9 3c
       -0.037316002 0.012793923 0.022215422 0.024555651
000180 79 c0 87 3d d9 33 c8 bc dd 12 90 bd 61 91 d2 bc
       0.06628508 -0.024438785 -0.07034848 -0.025704088
000190 81 13 c8 bc 84 9f b7 bc ce 45 c7 3b de 01 51 bd
       -0.024423363 -0.02241493 0.0060813194 -0.05102717
0001a0 07 34 2a bc bc 56 c4 3b e5 2d c1 bc 46 9c 34 bc
       -0.010388381 0.005991785 -0.023581455 -0.011023587
0001b0 76 a2 80 bd 61 55 32 bd 6b e5 db 3c db e9 88 bc
       -0.06280987 -0.043538455 0.026842793 -0.016713073
0001c0 44 6e 7d bd 2e d7 87 3d 61 71 8b bd 6d 94 e6 3a
       -0.061872736 0.06632839 -0.06808735 0.0017591842
0001d0 ae e4 41 bd 2e 6a 10 bc af 29 b6 3c 37 92 fc 3c
       -0.047337227 -0.008814378 0.022236673 0.03083144
0001e0 d5 a9 4e bc 5e 59 89 bd de d5 31 3c 7c c8 0f bd
       -0.012613733 -0.067064986 0.010854213 -0.035103306
0001f0 a0 78 f9 bb 5d 58 3b 3c 5b fa 0f bd 3a 5a 8d ba
       -0.0076132566 0.011434642 -0.035150867 -0.0010784336
000200 35 41 57 bd c5 75 ad bb bb 9f b2 3c 7e 81 26 bd
       -0.05255242 -0.0052935802 0.021804681 -0.040650837
000210 82 d3 7a 3c 91 e2 be bb 98 07 b2 bc 50 7e 84 3d
       0.015309216 -0.0058253487 -0.021732137 0.06469405
000220 dc 20 50 bd 9b f0 6d bc 60 dd 93 3c b3 cc 3b 3d
       -0.050812587 -0.014522697 0.018049896 0.045849513
000230 36 89 d6 3c 95 e9 0d 3d 48 85 3e 3d e4 2e 63 bd
       0.026188474 0.03464659 0.046513826 -0.05546464
000240 60 8f 76 3b 2d e3 d1 3a 64 1e 06 bd f5 bb ad bc
       0.003762208 0.0016013138 -0.032743827 -0.021207789
000250 b2 86 dd bc e2 2f e2 bc 53 29 88 bc db 9b 1c 3d
       -0.027041767 -0.027610723 -0.016621267 0.038234573
000260 af b2 88 bc ec d5 e3 3c fd db 95 bc af 19 d9 3c
       -0.016686765 0.027811967 -0.018293375 0.026501505
000270 2d 87 9d 3d 0d 66 8b 3b 5d 6b e0 bc fc 7d 43 bd
       0.07691798 0.0042541088 -0.027394945 -0.04772757
000280 f8 d8 5b bc db 3e 51 bd c7 3c 2e bd f5 c2 35 3d
       -0.013418429 -0.051085334 -0.04253843 0.04437538
000290 16 5f 13 bd b7 66 57 bc 0c a9 60 3c 1c a8 12 bd
       -0.035979353 -0.013147048 0.013712179 -0.035804853
0002a0 34 7d df 3c f3 62 29 bc 68 57 69 bc 2a 4e db 3b
       0.027281381 -0.010338533 -0.014242031 0.0066926675
0002b0 4d e0 90 3c a8 90 8d 3d 6b 0e 02 3d 9f af f6 3c
       0.01768508 0.069123566 0.03175203 0.03011304
0002c0 5c 65 0c 3d b0 0d 94 3a 51 12 46 3c 9b 7e 4f bc
       0.03427635 0.0011295583 0.012089328 -0.012664462
0002d0 f7 5f bf 3c db 82 77 bc 5c 35 87 3b cb c1 ac 3d
       0.02336119 -0.015106882 0.004126234 0.084354006
0002e0 6b cc eb 3c 23 e0 59 bc ae ff 3e bd 31 a0 f0 bb
       0.028783998 -0.013298067 -0.046630554 -0.007343315
0002f0 e3 da 18 bc ae ca 1a bc 52 c3 1f bd 33 91 ba bc
       -0.00932953 -0.009447737 -0.03900463 -0.022774315
000300 47 d3 25 3d 89 1d 29 bd 76 b4 b8 bc 30 5b 8e 3b
       0.040484693 -0.041287933 -0.022546988 0.0043443665
000310 d5 69 e9 3c 08 f5 aa bd 65 bc 13 bd fb ea 51 3c
       0.028492847 -0.08347517 -0.03606834 0.012812371
000320 48 c9 de 3c 9b c1 98 3c 42 31 a2 3c b9 2f ac bc
       0.027195588 0.018647006 0.019798879 -0.02101885
000330 b3 08 cd 3c 67 29 9f bc d8 8b 2b 3c f6 63 bc 3c
       0.025028562 -0.019428922 0.010470353 0.022996884
000340 6b 34 14 bd 44 77 ac bc 41 e6 98 bd 75 e3 5c bc
       -0.036182802 -0.021052964 -0.074657924 -0.013481964
000350 71 48 21 3d 1f a5 a4 bc 7a 1d 97 3c 92 d9 55 bd
       0.039375726 -0.020098267 0.018446673 -0.052209444
000360 36 55 88 bd d4 c4 19 3d 68 63 81 bc 60 65 96 bc
       -0.06656878 0.037541226 -0.01579447 -0.018358886
000370 cd 6c 35 bc 71 0f 57 bd 65 6a 06 bd 57 2e 49 3d
       -0.011073303 -0.05250496 -0.03281631 0.04911646
000380 39 72 d1 3c ce 38 a3 bc 9f 9d e0 bc 15 f7 9e bd
       0.02556716 -0.019924548 -0.02741891 -0.07761971
000390 43 e4 f6 3b e7 f6 28 bd 05 2c 24 3d 11 e3 f7 bc
       0.007534535 -0.04125109 0.040081043 -0.03025964
0003a0 94 6f 74 3c cc 0b d5 bc 2b fc 87 bc d1 50 0f bd
       0.01491918 -0.026006602 -0.016599735 -0.034989182
0003b0 65 5b bd bc ba 10 4c 3b b7 8f b3 3b 69 e6 4f bd
       -0.02311487 0.00311379 0.0054797786 -0.050756846
0003c0 a6 c0 0e 3d a5 6e 35 3c d5 80 bc 3c b2 cd c8 39
       0.034851693 0.011073743 0.02301065 0.00038300228
0003d0 e8 c0 88 bc a7 31 9e 3c cb 8f 04 bd ab 8f a7 3b
       -0.016693547 0.019310785 -0.032363694 0.005113562
0003e0 23 56 f4 bc de b3 66 bd 2b 43 ea bc 50 ec d2 3c
       -0.02982623 -0.05632388 -0.028596481 0.025747448
0003f0 8a b6 5b bd f2 a6 22 bc 2a 9a 6b 3c 09 95 06 3d
       -0.05364088 -0.009927498 0.014380017 0.032856975
